webapp/rscanner/state_dicts/model.pt (torch_old, 101370 bytes, 4 tensors)

i2h.weight f4 [128, 191]
0	0x3d8800ae	0.06640755
1	0x3d12421c	0.035707578
2	0x3ca9b618	0.020716712
3	0x3bdc2ca0	0.006719187
4	0xbcf533e4	-0.02993197
5	0x3ca15f20	0.01969868
6	0xba4d1c00	-0.0007824302
7	0xbd88c216	-0.06677644
8	0xbcdb0aa0	-0.026738465
9	0x3d80832e	0.062750205
10	0x3d3b1190	0.045671046
11	0x3d870784	0.0659323
12	0xbd93c4a0	-0.072152376
13	0xbcb33b54	-0.021878876
14	0x3d39d4a2	0.045368798
15	0x3d7bf6cc	0.06151466
16	0x3d3ec6d4	0.046576336
17	0x3c120208	0.008911617
18	0x3d63de18	0.055631727
19	0x3d11b14e	0.03556948
20	0xbc91315c	-0.017723732
21	0x3cdd92dc	0.027047567
22	0xbd3cbcb8	-0.046078414
23	0x3d3c6356	0.04599317
24	0xbc0092e8	-0.007847525
25	0xbd38c0aa	-0.045105614
26	0x3d841dff	0.06451034
27	0x3dbd176b	0.09232982
28	0xbd3205f9	-0.043462727
29	0xbcbafc9a	-0.022825528
30	0xbe1e1bf6	-0.15440354
31	0x3dac6424	0.08417538
32	0xbbd0d6d9	-0.006373268
33	0xbd09deab	-0.03365962
34	0xbd52dec2	-0.05148197
35	0xbd71b166	-0.05900707
36	0x3d9760fe	0.07391547
37	0x3e1e56b3	0.1546276
38	0xbd33bc3c	-0.043880686
39	0x3c9c1a8d	0.01905563
40	0x3d47e70d	0.04880433
41	0xbd5ad6a0	-0.05342734
42	0x3cfd25c4	0.030901797
43	0xbd8f6703	-0.0700207
44	0xbd031d01	-0.032010082
45	0x3d134368	0.035952955
46	0x3d97e130	0.07415998
47	0x3d1b6d7c	0.03794621
48	0xbcc3aae2	-0.023885194
49	0xbc7d40dc	-0.015457358
50	0x3c6a25d5	0.014291246
51	0xbd7f3352	-0.062304802
52	0x3d60a634	0.054846004
53	0xbd801b30	-0.062551856
54	0x3d47d834	0.04879017
55	0x3c895e8c	0.016768716
56	0x3b33c820	0.0027432516
57	0xbd12b6ee	-0.035818987
58	0xbce3f7fd	-0.027828211
59	0x3d21e578	0.03952548
60	0xb98befcc	-0.0002669081
61	0x3d68d888	0.056847125
62	0xbd1ba6c4	-0.038000837
63	0x3d6c805e	0.057739608
64	0x3c656d6a	0.014003137
65	0x3d6b9082	0.05751086
66	0xbd7e5eac	-0.062102005
67	0xbc43a53e	-0.011941252
68	0xbbe26a2e	-0.0069096303
69	0xbdc21b09	-0.09477813
70	0xbd0d7538	-0.034535617
71	0x3d96ab2b	0.073568664
72	0x3d275dbd	0.04086088
73	0x3d71b57a	0.05901096
74	0x3ce9b9b5	0.028530935
75	0xbd895fdb	-0.06707736
76	0x3daca95c	0.0843074
77	0x3d0496cb	0.03237037
78	0x3d6afc28	0.05736938
79	0x3d48c316	0.049014173
80	0xbc922761	-0.017841043
81	0x3d6fb990	0.058526576
82	0xbd38d6a3	-0.04512657
83	0xbcbb4dbe	-0.022864219
84	0x3d29c0ff	0.04144382
85	0x3cdb53c9	0.02677335
86	0x3c40af49	0.011760541
87	0x3cf89036	0.030342203
88	0x3d74bebe	0.05975222
89	0x3d1320bf	0.0359199
90	0xbb207e6f	-0.0024489423
91	0xbb264012	-0.0025367779
92	0x3c3d826f	0.011566742
93	0x3cb882f5	0.022523383
94	0x3d15263b	0.036413413
95	0x3d6355d3	0.05550177
96	0xbc89b7d5	-0.01681129
97	0x3d80daef	0.06291758
98	0x3d5efff6	0.054443322
99	0xbc95430a	-0.018220443
100	0x3c6d7171	0.014492379
101	0x3ceac4fc	0.028658383
102	0xbd236b04	-0.03989698
103	0xbc324840	-0.010881484
104	0xbd8a682a	-0.06758149
105	0x3dac5e3a	0.0841641
106	0x3d0f041d	0.034916032
107	0xbd7a3c3d	-0.061092604
108	0x3d7f40c5	0.06231763
109	0xbd94a8fb	-0.07258793
110	0x3dc72ed7	0.09725731
111	0xbd697301	-0.056994442
112	0x3d42669c	0.047461137
113	0xbbdfac6a	-0.0068259733
114	0xbcbc3c15	-0.022977868
115	0xbd45826a	-0.048220076
116	0xbd8c2cbe	-0.068444714
117	0x3da65300	0.081213
118	0x3dc174ba	0.09446092
119	0x3d82cfe3	0.063873075
120	0x3d9b4a1f	0.07582497
121	0x3d03f673	0.032217454
122	0xbad9163a	-0.001656241
123	0x3c115e62	0.0088726
124	0xbcfa8644	-0.030581601
125	0x3cf41263	0.029793924
126	0xbd7894f5	-0.06068893
127	0x3da1ecb4	0.07906476
128	0xbd6b382b	-0.057426613
129	0x3bb20493	0.005432674
130	0xbd29f405	-0.04149248
131	0xbc9a7d2a	-0.018858511
132	0x3d729f90	0.059234202
133	0xbbaa2e95	-0.0051935413
134	0xbd42cdad	-0.04755943
135	0xbc6f76f9	-0.014615768
136	0x3d20bd13	0.039242815
137	0x3da651af	0.08121049
138	0x3cc4d56f	0.024027554
139	0x3c5ffc42	0.013670983
140	0x3d986966	0.07441978
141	0x3c690cfb	0.014224286
142	0x3ccc7fa6	0.024963211
143	0xbd9f286c	-0.07771382
144	0x3cc9e5d9	0.024645733
145	0x3d48c927	0.04901996
146	0xbcfb750c	-0.03069546
147	0x3d9c8cf3	0.076440714
148	0x3d0d5030	0.0345003
149	0x3d4af469	0.049549494
150	0x3d309a24	0.04311575
151	0x3ca50833	0.020145511
152	0xbcb9f238	-0.022698507
153	0xbd66f2af	-0.056383785
154	0x3d646de5	0.055768866
155	0xbd1b4332	-0.03790588
156	0x3bf173e4	0.0073685516
157	0x3c19ab29	0.009379187
158	0x3a6e52a0	0.00090912916
159	0x3da8d635	0.08243982
160	0xbaf1f030	-0.0018458422
161	0xbd9335e6	-0.07188015
162	0xbc21ff93	-0.009887594
163	0xbd1f53ea	-0.038898386
164	0xbdbeb60b	-0.09312066
165	0x3c055744	0.0081384815
166	0xbc5faafb	-0.013651605
167	0x3d037788	0.032096416
168	0xbcb63cff	-0.022245882
169	0x3d8edd2a	0.069757774
170	0xbd3580a4	-0.044312134
171	0xbd9516ce	-0.0727974
172	0xbcdaad0e	-0.026693847
173	0x3aecdd24	0.0018071276
174	0x3cc72761	0.02431077
175	0x3d4cc312	0.04999072
176	0xbc2705e5	-0.010194276
177	0xbd9ba85c	-0.076004714
178	0x3c8dfe29	0.017333107
179	0xbc0b4f75	-0.008502831
180	0xbd3e1968	-0.046410948
181	0x3d927aa5	0.07152299
182	0x3d3c23eb	0.04593269
183	0x3d0f0c73	0.034923982
184	0xbb1fec75	-0.0024402414
185	0xbd32efd3	-0.043685745
186	0x3cbd1a6a	0.023083884
187	0xbcd31b00	-0.02576971
188	0xbd0eab68	-0.034831434
189	0xbce682f4	-0.028138615
190	0xbcdb622b	-0.026780209
191	0x3d3d31d6	0.046190105
192	0xbd096926	-0.033547543
193	0x3d1a4190	0.03766018
194	0xbd8a4bfa	-0.06752773
195	0xbd18db29	-0.037318382
196	0x3d187460	0.03722036
197	0xbd2b9d43	-0.041898023
198	0x3d909510	0.070596814
199	0x3cc77f70	0.02435276
200	0x3c4f1980	0.012640357
201	0xbd35c126	-0.044373654
202	0xbd9323c1	-0.07184554
203	0x3cde1b58	0.027112648
204	0x3c9183e0	0.017763078
205	0x3cca1150	0.024666458
206	0xbd285f11	-0.041106287
207	0xbd62f4b8	-0.055409163
208	0xb9d37e00	-0.00040338933
209	0xbc159690	-0.009130135
210	0x3d83be82	0.06432821
211	0xbb289c20	-0.0025727823
212	0xbd824e80	-0.06362629
213	0xbca99980	-0.020703077
214	0x3c6209d0	0.013796285
215	0x3d0d82f4	0.034548715
216	0xbd4125a7	-0.04715505
217	0xbbe565ef	-0.007000677
218	0xbd89c6f0	-0.067273974
219	0xbcaf3af8	-0.021390423
220	0x3b9818ed	0.0046416433
221	0xbd472f52	-0.048629113
222	0x3d029c3a	0.03188727
223	0xbc8be93a	-0.017078985
224	0x3d4deac6	0.050272726
225	0xbade022e	-0.0016937905
226	0x3d75f048	0.060043603
227	0x3b72bead	0.003703992
228	0xbb3788d2	-0.0028005135
229	0xbd966668	-0.07343751
230	0xbdb1e140	-0.08685541
231	0x3ce34499	0.02774267
232	0x3d7ad9c1	0.061242823
233	0xbd543e54	-0.051817253
234	0xbd304539	-0.043034766
235	0x3c7ddab4	0.015494037
236	0x3ddcace8	0.10775167
237	0xbd8b3333	-0.06796875
238	0xbc5f3ad2	-0.013624864
239	0x3a8b5255	0.0010629395
240	0xbccf153c	-0.02527868
241	0xbd61f23b	-0.05516265
242	0xbd19cb7a	-0.037547566
243	0x3d583524	0.052785054
244	0x3d91c782	0.07118131
245	0x3d01fa62	0.031732924
246	0xbd3d9ec4	-0.04629399
247	0x3ce45760	0.027873695
248	0xbafdec00	-0.0019372702
249	0x3c343391	0.0109986225
250	0x3d405fb0	0.046966255
251	0xbddb48b5	-0.10707227
252	0x3d0e2e22	0.034711964
253	0xbc3a3250	-0.0113645345
254	0x3d989658	0.07450551
255	0x3d288793	0.04114492

i2h.bias f4 [128]
0	0x3d5f11f5	0.054460485
1	0xbdd71b22	-0.10503222
2	0xbcad7315	-0.02117304
3	0xbc972d9a	-0.018454362
4	0x3e819130	0.25306082
5	0xbddd6ce8	-0.10811788
6	0x3e0480aa	0.12939706
7	0x3d36cb8d	0.044627715
8	0xbda67e9c	-0.081296176
9	0xbd7e9516	-0.0621539
10	0x3de09af7	0.10967057
11	0x3d910e7b	0.0708284
12	0x3c5a19ca	0.013311813
13	0xbca974ae	-0.02068552
14	0x3d11fa92	0.035639353
15	0x3da52362	0.08063389
16	0x3d2af0fd	0.04173373
17	0xbdbb3893	-0.0914165
18	0x3e064357	0.13111626
19	0x3d9c5cfa	0.07634921
20	0x3e1fbff6	0.15600571
21	0x3c8f3d7d	0.017485375
22	0x3df6391b	0.12022611
23	0x3d67be78	0.05657813
24	0x3dd92e0b	0.10604485
25	0xbd6dd4fa	-0.05806444
26	0x3db016f4	0.08598128
27	0xbe7326f4	-0.23745328
28	0x3e5d2ba9	0.21598686
29	0x3e7524e8	0.2393986
30	0x3e18667b	0.14882843
31	0x3da8d463	0.082436346
32	0x3d3a3d92	0.045468874
33	0xbc8c5057	-0.017128153
34	0x3e095762	0.1341224
35	0x3c4ae93a	0.012384707
36	0x3e5a53d0	0.21321034
37	0x3cc7b9ea	0.024380643
38	0x3db8c32d	0.09021602
39	0x3e30490f	0.1721537
40	0x3d1a770a	0.03771118
41	0x3dfc1ab1	0.123097785
42	0xbc592717	-0.013253949
43	0xbb93b9a8	-0.004508216
44	0xbd8f892f	-0.070085876
45	0x3dfd2c85	0.12362007
46	0x3df5e42f	0.12006413
47	0xbdd0fdd2	-0.102046624
48	0xbe3a03fb	-0.18165581
49	0x3c1f5bf2	0.009726511
50	0xbc2b5335	-0.01045685
51	0xbd4912e1	-0.04909027
52	0x3da311ee	0.07962404
53	0x3e0d7fd4	0.13818294
54	0x3d2bd527	0.041951325
55	0x3dea2b5f	0.11434054
56	0x3e885019	0.2662361
57	0x3d40fb72	0.047114797
58	0xbccb94f0	-0.024851292
59	0xbdb3f611	-0.08787168
60	0x3d62ec82	0.055401333
61	0xbd6c170e	-0.057639174
62	0x3cf7c5fd	0.030245775
63	0x3cee5611	0.029093774
64	0xbd0bd1f3	-0.03413577
65	0xbe0e219c	-0.13880008
66	0xbc217b10	-0.009856001
67	0xbda0e55f	-0.07856249
68	0xbd0d71d7	-0.034532394
69	0x3cf0d2ee	0.029397454
70	0x3e0e753a	0.13911906
71	0xbc7103bd	-0.014710364
72	0x3e08da48	0.13364518
73	0x3d9ca6dc	0.076490134
74	0xbd86a521	-0.065744646
75	0xbe4fbabe	-0.2028608
76	0x3e55ca22	0.20877889
77	0xbbf089ab	-0.00734063
78	0x3e16c08c	0.14721888
79	0x3de8c437	0.1136555
80	0xbdd4e25a	-0.10394736
81	0xbe81fd93	-0.25388774
82	0xbe6aafa0	-0.22918558
83	0xbe63fc6f	-0.22264265
84	0x3c5129d4	0.01276632
85	0xbd6450c1	-0.055741075
86	0x3e092d6e	0.13396236
87	0xbce6c86c	-0.02817174
88	0xbe07e95f	-0.13272618
89	0x3b89330b	0.004186993
90	0x3d9974e0	0.07492995
91	0x3e00b941	0.12570669
92	0x3d2c74f2	0.042103715
93	0xbb042fcb	-0.0020170088
94	0x3d2cee17	0.042219248
95	0x3d626f58	0.055281967
96	0x3ddd4fba	0.10806222
97	0x3d8c9c20	0.06865716
98	0xbdc5ee64	-0.0966461
99	0x3d26b273	0.040697526
100	0xbdb5c716	-0.08875863
101	0xbcdc24c3	-0.026872998
102	0x3e67a0d3	0.22619943
103	0x3b8b3d05	0.0042492175
104	0x3d3566f4	0.044287637
105	0xbe2d9ef3	-0.16955166
106	0x3e0d8c22	0.13822988
107	0x3df38efd	0.11892507
108	0xbd86c62b	-0.06580766
109	0x3af7a98b	0.0018895132
110	0x3db53411	0.088478215
111	0x3b57ca26	0.0032926886
112	0xbe35687d	-0.1771564
113	0x3d43e268	0.04782334
114	0x3de8c64f	0.11365949
115	0xbc892040	-0.01673901
116	0xbdb5d068	-0.08877641
117	0xbe085fd4	-0.13317806
118	0xbd9dc578	-0.0770368
119	0x3ca190d1	0.019722374
120	0xbe176b5d	-0.1478705
121	0x3bf8b34f	0.0075897346
122	0xbd73306f	-0.05937236
123	0xbdbe23ed	-0.09284196
124	0x3d8aad8a	0.06771381
125	0xbe16d309	-0.14728941
126	0xbd92ef83	-0.071745895
127	0x3d0f105a	0.034927703

i2o.weight f4 [3, 191]
0	0x3d602878	0.054726094
1	0x3d851546	0.06498198
2	0xbc27c748	-0.010240383
3	0xbd0c741f	-0.03429043
4	0x3d3256fa	0.04353998
5	0x3c1b55a8	0.009480871
6	0xbd7f4071	-0.062317315
7	0x39ace000	0.0003297329
8	0x3b337620	0.002738364
9	0xba915400	-0.0011087656
10	0xbd7ff636	-0.062490664
11	0x3b80cc10	0.003930576
12	0x3b519740	0.0031981021
13	0xbce7d240	-0.028298497
14	0x3cbd4af0	0.023107022
15	0x3c7a5670	0.015279397
16	0xbd8ee8cf	-0.069779985
17	0x3d432e9a	0.047651865
18	0x3d3f05ea	0.0466365
19	0xba1a9a00	-0.00058975816
20	0x3cd60c24	0.026128836
21	0xbbb29e40	-0.005450994
22	0x3ca2d2fc	0.019875996
23	0x3d64af6c	0.055831358
24	0x3c9cb998	0.019131467
25	0xbd18aa9e	-0.03727209
26	0x3f043771	0.51647097
27	0x3e146f1d	0.14495511
28	0x3d0fbfb2	0.035094924
29	0x3df38efa	0.11892505
30	0x3ca245a5	0.0198086
31	0xbc5583bc	-0.013031896
32	0x3e9c44e0	0.30521297
33	0xbdd29909	-0.102830954
34	0xbe9a0c6b	-0.300876
35	0xbd79953d	-0.06093334
36	0x3ed7a1b2	0.4211555
37	0x3ee66df3	0.4500576
38	0xbd74d3da	-0.05977235
39	0x3e8ba5bb	0.2727488
40	0xbd53d24a	-0.05171422
41	0x3ec15ead	0.37767544
42	0xbce0fb00	-0.027463436
43	0x3e9cf5fd	0.30656424
44	0xbd8741f4	-0.066043764
45	0xbe7a1cd8	-0.24425066
46	0xbd473cdb	-0.04864202
47	0x3c39b7a8	0.011335291
48	0xbd128acb	-0.035776895
49	0x3f26e2f3	0.6519005
50	0xbcd4bbca	-0.025968451
51	0x3d91a83b	0.071121655
52	0x3c3d8ce0	0.011569232
53	0xbd757434	-0.059925273
54	0x3cb1a844	0.02168668
55	0xbd2debf8	-0.042461365
56	0xbd1716c3	-0.03688694
57	0x3cf5f3f0	0.030023545
58	0xbd268c56	-0.04066118
59	0xbbf6a240	-0.007526666
60	0xbc2671b0	-0.010158941
61	0xbb54db20	-0.0032479241
62	0x3d34c940	0.04413724
63	0xbe0c2271	-0.13685013
64	0xbde8f04e	-0.113739595
65	0xbdbcb069	-0.09213335
66	0xbda08f59	-0.078398414
67	0x3e2541fe	0.16138455
68	0x3ca1f9f4	0.019772507
69	0x3b0a45a7	0.0021098645
70	0x3dce3ac8	0.100698054
71	0x3d80e918	0.06294459
72	0xbc54e89b	-0.012994911
73	0x3e1edc42	0.15513709
74	0x3c81d47d	0.015848393
75	0x3d85fa46	0.065418765
76	0xbd973b28	-0.0738433
77	0x3dba228f	0.09088623
78	0x3e3b6802	0.18301395
79	0xbdb03b79	-0.086050935
80	0xbda15e69	-0.078793354
81	0x3e1f0c0b	0.15531938
82	0xbc9103a8	-0.017701939
83	0x3e4406d9	0.19143237
84	0x3cc0c1ed	0.023529971
85	0x3dd112eb	0.102086864
86	0x3da77857	0.0817725
87	0x3e02546f	0.12727521
88	0xbe3698e8	-0.17831767
89	0x3d851a39	0.06499142
90	0xbdc72c13	-0.09725203
91	0x3e4d59b2	0.20053747
92	0x3e4d776a	0.20065084
93	0x3e5119b9	0.20419969
94	0x3e56ff54	0.20995837
95	0x3c9b83f7	0.018983824
96	0xbd9d4dae	-0.07680832
97	0x3e15a21e	0.14612624
98	0x3d4a8e20	0.049451947
99	0x3e993e1d	0.299302
100	0xbe051ee1	-0.1300006
101	0x3df6abda	0.12044497
102	0x3de74e78	0.112942636
103	0xbe01c205	-0.12671669
104	0xbbbf8bca	-0.0058455216
105	0xbb7799e6	-0.003778094
106	0x3d922222	0.071354166
107	0x3d7f3ead	0.06231563
108	0x3e5969de	0.21231791
109	0x3dc1e0b1	0.094666846
110	0xbe00a0d0	-0.12561345
111	0xbe3a107c	-0.18170351
112	0x3daabd7f	0.08336925
113	0x3da6bb4f	0.08141195
114	0xbdc562fb	-0.0963802
115	0x3e43b5bd	0.19112296
116	0x3e78bdc9	0.24291147
117	0x3c88305b	0.01662462
118	0x3e100778	0.14065349
119	0x3e4d883c	0.200715
120	0x3e058592	0.13039234
121	0xbd44f1e6	-0.048082255
122	0xbd75cec1	-0.06001163
123	0xbdb064ac	-0.08612952
124	0xbe49b94a	-0.19699588
125	0x3e22ebc7	0.15910254
126	0x3dcb9731	0.09940947
127	0xbdf8a7fc	-0.121414155
128	0xbd4556cf	-0.04817849
129	0x3e11c0ef	0.14233755
130	0x3d6bc4d7	0.057560768
131	0xbdbb25d2	-0.09138073
132	0x3d890de1	0.066921
133	0x3e82df6a	0.25561076
134	0xbdcfc024	-0.1014407
135	0x3e2a10d0	0.16607976
136	0xbdd33fdb	-0.10314914
137	0x3c374d78	0.011187904
138	0xbe79209b	-0.24328844
139	0x3e5629b2	0.20914343
140	0xbdd039de	-0.10167287
141	0x3e05e9c6	0.13077459
142	0x3e1d055e	0.15334079
143	0xbdbe22b2	-0.09283961
144	0xbeeef13e	-0.46668428
145	0xbeb27222	-0.348527
146	0xbec81a9b	-0.39082798
147	0x3d47f936	0.04882165
148	0xbd85c57c	-0.06531808
149	0x3e3223b0	0.17396426
150	0xbc82762e	-0.015925493
151	0xbdca002d	-0.09863315
152	0xbcea1101	-0.028572561
153	0x3d7b381e	0.061332814
154	0x3e047a2e	0.12937233
155	0x3ca2d2aa	0.019875843
156	0x3dce3e45	0.10070471
157	0x3e8ef9ab	0.27924857
158	0x3d5f70a4	0.05455078
159	0x3e218092	0.15771702
160	0xbdb099a3	-0.08623054
161	0xbe841471	-0.25796846
162	0x3da2771a	0.07932873
163	0xbe524b04	-0.20536429
164	0xbdec85b2	-0.11548938
165	0x3db83893	0.08995166
166	0x3c142e83	0.009044292
167	0xbd1cc104	-0.03827001
168	0xbe52d886	-0.2059041
169	0x3e82749d	0.25479594
170	0x3dd670dc	0.10470745
171	0xbdf94645	-0.12171606
172	0xbd9dd80b	-0.077072226
173	0x3e0823fd	0.13294978
174	0xbd6e2876	-0.058144055
175	0xbe8d67c7	-0.27618238
176	0xbe71d969	-0.23618092
177	0x3db9ddc2	0.090755
178	0x3de548e2	0.11195542
179	0xbe02b44b	-0.12764089
180	0xbe8acd0d	-0.27109566
181	0xbd8bb886	-0.068223044
182	0x3d9aa7ce	0.075515375
183	0xbdb53f1c	-0.08849928
184	0xbcb19e11	-0.021681817
185	0x3dc7fb37	0.09764712
186	0xbdc5a2ed	-0.09650216
187	0x3d7efb02	0.0622511
188	0xbe745353	-0.2385991
189	0xbdbc101a	-0.09182759
190	0xbdcab43d	-0.09897659
191	0xbd698fa3	-0.05702175
192	0xbca71e70	-0.020400256
193	0x3c99a930	0.018757433
194	0x3c69dee0	0.014274329
195	0xbd01f389	-0.031726394
196	0xbd4128ba	-0.04715798
197	0x3cfbaf9c	0.030723386
198	0xbd237a96	-0.03991183
199	0xbd3f905c	-0.04676853
200	0xbd560def	-0.05225938
201	0xbd5f032b	-0.05444638
202	0x3cfb157c	0.030649893
203	0x3c0cb4c8	0.0085880235
204	0xbc66b7f4	-0.014081944
205	0xbd4a8613	-0.04944427
206	0x3d55bd1c	0.052182302
207	0x3d4eafe0	0.050460696
208	0xbd93aaf9	-0.07210345
209	0xbd8ed076	-0.069733545
210	0xbd37cb46	-0.04487159
211	0xbd92563a	-0.07145353
212	0x3d1234c0	0.035694838
213	0xbd21677e	-0.03940534
214	0xbd1eda75	-0.038782556
215	0xbd63eac2	-0.055643804
216	0x3b12fcc0	0.0022428483
217	0xbe0c4099	-0.13696517
218	0xbeed1ec7	-0.46312544
219	0xbc97a24c	-0.018510006
220	0xbc857a9b	-0.016293814
221	0x3eee795f	0.46576974
222	0x3ca3c388	0.019990698
223	0xbdbe47b0	-0.09291017
224	0x3d99cac8	0.075093806
225	0xbeb3d4f2	-0.35123402
226	0x3ca7142c	0.02039536
227	0xbe62ca32	-0.22147444
228	0xbdc72e6c	-0.09725651
229	0x3cd07768	0.025447562
230	0xbd5c3847	-0.053764608
231	0x3bf110c0	0.007356733
232	0xbe30c66d	-0.17263193
233	0x3c0fcc78	0.0087767765
234	0xbd847cb5	-0.064690985
235	0x3e344933	0.17606048
236	0xbe4829b1	-0.19547154
237	0xbc237dd4	-0.00997873
238	0x3d1bbc78	0.038021535
239	0x3d398984	0.04529716
240	0xbec6916a	-0.38782817
241	0xbcf0e866	-0.029407691
242	0xbddfa219	-0.109195895
243	0x3cf3196c	0.029675208
244	0xbd066b70	-0.032817304
245	0x3d44ed90	0.04807812
246	0x3d0197d8	0.03163895
247	0x3d50393c	0.050835833
248	0x3d9042c2	0.07043983
249	0x3ccbb6a8	0.02486737
250	0x3d260a2c	0.040537044
251	0xbd66a2b4	-0.05630751
252	0xbd530989	-0.051522765
253	0x3d43144e	0.047626786
254	0x3dbfe7a2	0.09370352
255	0xbc17402b	-0.009231607

i2o.bias f4 [3]
0	0x40562128	3.3457737
1	0xbfd2a79d	-1.6457402
2	0xbfd61c51	-1.6727391
