old_stuff/pclassifier/state_dicts/model.pt (torch_old, 108842 bytes, 4 tensors)

i2h.weight f4 [128, 192]
0.016827628 -0.0518914 0.0047060624 0.007163547 0.027822845 0.043759532 0.03765081 -0.042705845
-0.0543337 -0.064234495 0.0033074394 -0.0037001371 0.05999358 -0.0065540224 0.060063496 -0.0701458
-0.057992376 -0.06802564 -0.053628154 -0.03987098 0.007626906 -0.021287113 0.015604675 0.0043425187
0.0036910698 0.044317685 -0.22291404 0.23101155 0.108050376 0.0016762558 0.124468915 0.09398359
-0.10802237 -0.27515188 0.15188421 0.03734503 -0.01793109 0.082254656 -0.1032219 -0.017213523
0.16085604 -0.05803715 -0.047776293 -0.06479281 -0.08795069 0.13746132 -0.045855545 -0.047028303
0.020810856 0.010804161 0.057645027 -0.024222683 0.07744839 0.0038320422 0.029341886 0.0011567324
-0.036422737 0.06334242 -0.09031305 0.046330035 -0.019977182 -0.04544307 -0.047057018 0.0281739
-0.048052434 -0.065769896 -0.03048807 -0.023066426 -0.07757401 -0.07868666 -0.090145014 0.036932558
0.032663453 -0.09031275 -0.09423594 0.007340082 -0.090799525 0.047430053 -0.11949887 0.09397068
0.094531596 0.04388217 0.096724585 -0.0036581878 -0.06346763 -0.08211289 -0.05784038 -0.079209164
-0.074450724 -0.034469094 -0.0013748618 0.051078293 -0.00052691007 -0.015858598 -0.012617745 -0.08801277
0.043738876 -0.05669594 0.03768157 -0.04309969 0.08870506 -0.04285707 0.005175024 -0.0035258597
0.01742057 0.09299314 -0.03211567 0.012508853 -0.097843125 -0.0229753 0.04080305 -0.006155529
-0.06448879 -0.0011703635 0.10616304 0.033965196 -0.08642985 0.0032286025 0.039151825 -0.04647844
-0.018914174 0.012237852 0.06092171 -0.055047676 -0.115480065 -0.0023696343 0.00964413 0.032386415
-0.011330004 0.005152096 -0.12600802 -0.070985764 0.07802096 -0.06109576 0.021931926 -0.056855183
-0.028713431 0.0033904347 -0.03231291 0.018178679 0.08042623 0.04653433 0.034998443 -0.038884405
-0.029692426 -0.045573022 0.03725146 0.044188328 0.05687517 0.078226626 0.09123829 -0.10370646
-0.053587507 -0.010141933 -0.014218322 -0.022745011 0.015250712 -0.09337902 -0.06613179 0.023040399
0.08045622 0.008552085 0.028623186 -0.04431319 0.005366103 -0.090349466 -0.056081284 0.07304784
-0.044645872 -0.08200083 0.109580345 -0.012469457 -0.01096151 0.0077796425 -0.021589862 0.0115538975
-0.057830527 0.077252276 -0.034346897 -0.01896009 -0.068953864 0.04045757 0.003651009 -0.021340746
-0.003298316 -0.009657999 -0.03516306 0.10461153 -0.004823182 0.06426031 0.03333615 0.01797925
0.06968491 0.055575266 0.031006612 -0.026070949 0.05509691 -0.0684365 -0.023528699 0.072111696
-0.03297051 -0.05690035 -0.018676482 0.0033554062 -0.04029488 -0.0285221 -0.018759847 0.02211745
-0.034437593 -0.019461393 0.012619413 0.020196162 -0.006366521 -0.0054534897 0.06865598 0.06273222
0.0034406036 -0.02225225 0.09265344 0.12148555 0.07187926 -0.013423731 0.024962926 0.13044287
-0.008230814 0.07348039 0.07122736 0.076544926 0.062249858 -0.04122423 0.0731638 -0.115902126
0.023085676 -0.15736724 0.027688725 -0.17025907 -0.041372523 -0.072880045 -0.0117362235 -0.014170797
-0.010952101 0.06276582 -0.014408164 0.039749503 0.044618405 -0.02298306 -0.0716504 0.05580908
-0.05557123 -0.03553939 0.019707482 -0.0145047605 -0.09412605 0.012130663 0.057255678 0.010366272
00000000: 18da 893c 148c 54bd 5035 9a3b 30bc ea3b
00000010: bcec e33c 323d 333d bc37 1a3d 53ec 2ebd
00000020: 048d 5ebd 608d 83bd a0c1 583b 007e 72bb
00000030: d4bb 753d 20c3 d6bb 2405 763d 9aa8 8fbd
00000040: 6a89 6dbd 0751 8bbd 32a9 5bbd c14f 23bd
00000050: 20eb f93b 5062 aebc c0aa 7f3c b04b 8e3b
00000060: e0e5 713b 7686 353d 9443 64be 4b8e 6c3e
00000070: 8449 dd3d d0b5 db3a 8fe9 fe3d 787a c03d
00000080: d53a ddbd b5e0 8cbe 8987 1b3e 1af7 183d
00000090: 39e4 92bc 2175 a83d 0166 d3bd 6003 8dbc
000000a0: 72b7 243e 5db8 6dbd 13b1 43bd 18b2 84bd
000000b0: 7e1f b4bd a9c2 0c3e 06d3 3bbd c0a0 40bd
000000c0: 877b aa3c f003 313c 311d 6c3d a66e c6bc
000000d0: 439d 9e3d 0023 7b3b 655e f03c 809d 973a
000000e0: 0230 15bd acb9 813d 0cf6 b8bd 90c4 3d3d
000000f0: 30a7 a3bc 8322 3abd dcbe 40bd f3cc e63c
00000100: a1d2 44bd 5eb2 86bd 1ec2 f9bc cdf5 bcbc
00000110: 1fdf 9ebd 7926 a1bd f39d b8bd 9846 173d
00000120: 1dca 053d e4f5 b8bd c6fe c0bd 1285 f03b
00000130: 1af5 b9bd 0446 423d d3bb f4bd b373 c03d
00000140: c899 c13d cabd 333d 8a17 c63d 35be 6fbb
00000150: 51fb 81bd ce2a a8bd 09ea 6cbd 6a38 a2bd
00000160: 9f79 98bd 772f 0dbd b534 b4ba 7937 513d
00000170: 5620 0aba e4e9 81bc a9ba 4ebc 0a40 b4bd
00000180: 8927 333d 013a 68bd fd57 1a3d 4d89 30bd
00000190: 00ab b53d e58a 2fbd 3f93 a93b 1c12 67bb
000001a0: 95b5 8e3c 3073 be3d b98b 03bd eff1 4c3c
000001b0: fa61 c8bd b236 bcbc 1921 273d 52b4 c9bb
000001c0: b312 84bd e266 99ba 026c d93d 171f 0b3d
000001d0: 2202 b1bd f696 533b aa5d 203d 2d60 3ebd
000001e0: e6f1 9abc 4681 483c 0b89 793d ac79 61bd
000001f0: d080 ecbd de4b 1bbb 6a02 1e3c 9ea7 043d
00000200: 7ba1 39bc ead2 a83b 3f08 01be fc60 91bd
00000210: 74c9 9f3d 8c3f 7abd 95aa b33c fbe0 68bd
00000220: 6e38 ebbc 0e32 5e3b 8b5a 04bd 74eb 943c
00000230: 82b6 a43d c89a 3e3d 875a 0f3d 4145 1fbd
00000240: 883d f3bc c7aa 3abd fd94 183d d2fe 343d
00000250: f0f5 683d 4835 a03d 24db ba3d 0d64 d4bd
00000260: 937e 5bbd 5a2a 26bc f7f3 68bc bf53 babc
00000270: 1fde 793c 803d bfbd 1b70 87bd 38bf bc3c
00000280: 3bc6 a43d 0b1e 0c3c 2c7b ea3c bf81 35bd
00000290: 22d6 af3b 2409 b9bd 7db5 65bd 1b9a 953d
000002a0: 97de 36bd 0df0 a7bd a96b e03d b24c 4cbc
000002b0: e897 33bc 5fec fe3b 39dd b0bc 8f4c 3d3c
000002c0: b4df 6cbd 7136 9e3d 55af 0cbd 3152 9bbc
000002d0: af37 8dbd d6b6 253d c445 6f3b cad2 aebc
000002e0: 8f28 58bb 953c 1ebc 2407 10bd 923e d63d
000002f0: c80b 9ebb e99a 833d 7d8b 083d 3849 933c
00000300: f6b6 8e3d e4a2 633d 9401 fe3c be92 d5bc
00000310: 4cad 613d 7028 8cbd 42bf c0bc 4caf 933d
00000320: 160c 07bd 5710 69bd 6cff 98bc 60e6 5b3b
00000330: 3e0c 25bd 2ea7 e9bc 40ae 99bc a82f b53c
00000340: 6f0e 0dbd 806d 9fbc a8c1 4e3c 6c72 a53c
00000350: 409e d0bb 30b3 b2bb 829b 8c3d c079 803d
00000360: c07b 613b 5a4a b6bc 16c1 bd3d 6bcd f83d
00000370: 6f35 933d 35ef 5bbc 0d7f cc3c d192 053e
00000380: 89da 06bc e37c 963d a6df 913d 96c3 9c3d
00000390: b5f9 7e3d bdda 28bd e7d6 953d 185e edbd
000003a0: 2c1e bd3c e124 21be 77d3 e23c 6558 2ebe
000003b0: 3c76 29bd 2242 95bd 4a49 40bc a12c 68bc
000003c0: 7170 33bc 5e8b 803d 3810 6cbc 60d0 223d
000003d0: cac1 363d f846 bcbc 72bd 92bd 1098 643d
000003e0: a89e 63bd c091 11bd 9671 a13c 60a5 6dbc
000003f0: 29c5 c0bd b0bf 463c ee84 6a3d 4cd7 293c

i2h.bias f4 [128]
-0.028654354 0.05177548 0.04378328 -0.012527434 0.18071388 0.10175688 -0.14971614 -0.08039589
0.03040754 0.20412785 0.15396573 -0.048254073 -0.01526492 0.07483649 -0.043426238 -0.03364306
0.101384655 -0.04046512 0.039761316 -0.11481583 -0.09582228 -0.0013387514 0.06687694 -0.12567145
0.13355753 -0.17857367 0.04566587 -0.07136216 -0.13736461 0.00030911437 -0.02795114 -0.13585834
-0.18473049 0.072629414 0.03591406 0.121003166 0.027241603 0.08917763 -0.06769256 0.111880265
-0.02763525 0.15089302 0.012041838 -0.15614213 0.030906387 0.01291585 0.101355396 0.09719893
0.030496594 -0.03501751 -0.14221714 0.18078159 0.04395985 0.028788684 -0.0056382646 0.0144424
-0.21258053 0.0032447334 -0.01650084 -0.10029201 -0.040940043 0.017373083 0.1987725 -0.11394442
0.08682609 0.02712809 0.110649765 -0.014208133 -0.018933171 0.12755346 0.049110476 0.020341674
-0.120490216 -0.082651675 -0.032519307 0.08417554 -0.0049018534 -0.106371514 0.25505003 0.045411978
0.05248744 0.13679028 0.0038700907 0.10698096 -0.056338716 -0.023693137 -0.014445229 -0.24339013
0.081292555 -0.0028576362 0.17491673 0.02900556 -0.18028167 -0.02226703 0.13307855 0.124445595
0.049859382 0.008058312 0.11521465 -0.06659857 -0.18077186 -0.11957707 0.005827751 0.118417
0.09776881 0.02433514 -0.09287457 0.07083318 -0.07385464 -0.04861387 0.034572482 0.10398593
-0.22220187 -0.1311945 0.104958 0.06992275 0.0023080567 0.034217753 -0.047119312 0.10371989
0.112716764 -0.03170798 0.018186769 0.18937314 0.083319135 -0.064627 -0.08714521 -0.04249375
00000000: 89bc eabc 8712 543d 1956 333d de3f 4dbc
00000010: 0f0d 393e e965 d03d 304f 19be 9aa6 a4bd
00000020: 3c19 f93c e406 513e 31a9 1d3e 10a6 45bd
00000030: b719 7abc e043 993d b6df 31bd 4ecd 09bd
00000040: c2a2 cf3d c1be 25bd c3dc 223d 9024 ebbd
00000050: 793e c4bd 0b79 afba c7f6 883d 04b0 00be
00000060: 4ec3 083e 04dc 36be 230c 3b3d 5326 92bd
00000070: 4fa9 0cbe a110 a239 caf9 e4bc 731e 0bbe
00000080: fd29 3dbe bbbe 943d 9f1a 133d 82d0 f73d
00000090: c829 df3c c3a2 b63d 66a2 8abd 7b21 e53d
000000a0: 5263 e2bc b383 1a3e 214b 453c b9e3 1fbe
000000b0: 642f fd3c 009d 533c 6b93 cf3d 3c10 c73d
000000c0: fed3 f93c 856e 0fbd 5fa1 11be cf1e 393e
000000d0: 3e0f 343d 3fd6 eb3c 31c1 b8bb d19f 6c3c
000000e0: b6ae 59be 98a5 543b c52c 87bc e665 cdbd
000000f0: bfb0 27bd ff51 8e3c 058b 4b3e b15b e9bd
00000100: e1d1 b13d ba3b de3c 589c e23d 3bc9 68bc
00000110: bd19 9bbc 609d 023e 1128 493d 95a3 a63c
00000120: 93c3 f6bd 4845 a9bd f732 05bd 3a64 ac3d
00000130: ba9f a0bb 4fd9 d9bd eb95 823e e901 3a3d
00000140: 12fd 563d c012 0c3e 59a1 7d3b d518 db3d
00000150: 6dc3 66bd 1c18 c2bc afab 6cbc 433b 79be
00000160: b67c a63d 2e47 3bbb 5f1d 333e 119d ed3c
00000170: c29b 38be 5969 b6bc be45 083e 55dd fe3d
00000180: 5a39 4c3d 0307 043c a9f5 eb3d d564 88bd
00000190: 421c 39be d3e4 f4bd b8f6 be3b 9d84 f23d
000001a0: 043b c83d 7d5a c73c 0635 bebd fc10 913d
000001b0: 1a41 97bd 561f 47bd e09b 0d3d 93f6 d43d
000001c0: e388 63be da57 06be 38f4 d63d a933 8f3d
000001d0: c442 173b ea27 0c3d 2e00 41bd 186b d43d
000001e0: 0cd8 e63d 3ae0 01bd 6bfc 943c 08eb 413e
000001f0: 39a3 aa3d 295b 84bd 3079 b2bd ed0d 2ebd

i2o.weight f4 [12, 192]
-0.005913697 -0.06852448 -0.041511208 0.047971286 -0.02752588 -0.04087986 -0.06448423 0.019902945
-0.061675068 0.07159813 0.03790818 -0.032727513 -0.01729611 -0.016157787 -0.025203172 -0.062623836
0.012448765 -0.029876914 0.030656844 0.04120619 -0.020451535 -0.033894252 0.022497214 -0.02788939
0.043647103 -0.05626799 0.43756324 0.02660115 0.054972157 -0.04223099 0.016870745 0.048292194
0.016159607 -0.11614229 -0.30764633 -0.030815266 0.025135623 -0.18667944 0.008662712 -0.26998222
-0.015444957 -0.062284436 0.04683785 0.26372862 -0.21923661 0.2988301 -0.03870323 -0.03686237
-0.035561807 -0.026283044 0.05020873 -0.08972856 -0.047878116 -0.030015614 -0.060311884 0.015709467
0.003196232 -0.032960504 -0.019519757 0.015094899 0.072087914 0.030359209 -0.042827345 0.05260928
0.00963973 0.0884221 -0.12621695 -0.1516782 -0.09103598 0.07381248 0.14345305 0.059541434
0.38606912 -0.25478706 0.05208135 -0.27487737 0.21137315 0.108959176 0.09739829 0.07340572
-0.115149505 0.030878503 0.08566991 0.35057837 -0.059964698 -0.30168325 0.017891578 0.04250268
0.035326723 0.21408598 0.22587144 -0.113211945 -0.0863583 0.21571214 0.0075740996 0.24741632
0.31677908 -0.32188314 -0.15934034 0.0023536682 0.14150113 -0.019620828 -0.19031765 0.042914823
-0.050710242 -0.2514803 -0.11114602 0.37304205 0.06702166 -0.23481981 -0.23476785 -0.07158623
-0.066484965 -0.25349396 0.0019004127 -0.03652843 -0.082988344 0.038671445 -0.08208958 -0.09221151
0.18346685 -0.3388867 -0.09777764 0.19925684 -0.23953894 0.15708028 -0.23088093 -0.11590652
-0.12630735 -0.14413835 0.12628537 0.05771225 -0.095637664 -0.053293586 0.11197466 -0.48971894
-0.14448883 0.120718524 -0.049619928 -0.16231883 -0.08006712 0.22118871 -0.23678352 -0.024848845
0.10266062 -0.040304877 0.08795042 -0.13776849 0.054330025 -0.037126742 0.08855172 -0.040082946
0.031334877 0.23577729 -0.32150242 -0.0021885461 -0.25858456 0.15987718 -0.07253349 -0.12332773
-0.0014263478 -0.0011370991 -0.06928043 0.029231897 -0.17005585 0.15821618 -0.22125605 -0.19527636
-0.1794838 0.15354578 0.25803545 0.03269029 -0.04881866 -0.09656089 0.2217612 0.17332205
0.092821404 0.055374477 -0.112004176 -0.07780686 -0.215982 0.23777276 0.032772716 -0.15149404
-0.035094324 -0.10699744 -0.13520855 -0.07807263 0.077557564 -0.24207146 -0.09411605 0.046695758
0.056024417 -0.023033552 -0.010328095 -0.038035646 0.064297706 0.06855567 -0.059264265 0.0034456402
0.027493812 -0.035651032 -0.031154454 0.047527783 -0.03162935 -0.052936964 -0.070542134 -0.050678737
-0.015666243 0.07137205 0.046497382 -0.013085365 0.02568359 -0.045861647 -0.054452278 0.010762483
6.6272914e-05 -0.070579514 -0.19890893 0.04424554 0.012083873 -0.07515998 0.12238897 0.013849325
0.027346214 -0.04124015 1.355835 -0.015463725 -0.014598284 -0.12048156 -0.08311207 -0.25503412
-0.005744485 -0.033560578 -0.024599556 -0.22693132 -0.111015886 -0.27086616 -0.054887034 -0.030580148
0.002682589 -0.01919166 0.007175982 -0.013929415 0.047422312 -0.060794078 0.045544572 0.010848813
0.037426345 0.02319663 -0.06714983 0.011576295 -0.060198408 -0.0014499873 0.057998464 -0.07145546
00000000: b0c7 c1bb 9056 8cbd a807 2abd 8a7d 443d
00000010: f47d e1bc a471 27bd 4f10 84bd 800b a33c
00000020: ff9e 7cbd 0aa2 923d 9c45 1b3d 490d 06bd
00000030: 92b0 8dbc 565d 84bc e276 cebc ed40 80bd
00000040: e8f5 4b3c 6ec0 f4bc 1024 fb3c d2c7 283d
00000050: fa89 a7bc b3d4 0abd 144c b83c 4a78 e4bc
00000060: 4ec7 323d 4479 66bd 4a08 e03e a8ea d93c
00000070: 7c2a 613d 67fa 2cbd 8434 8a3c 09ce 453d
00000080: 2761 843c 02dc edbd d283 9dbe 4c70 fcbc
00000090: 39e9 cd3c e528 3fbe 0cee 0d3c 1c3b 8abe
000000a0: d80c 7dbc f71d 7fbd 0cd9 3f3d 7007 873e
000000b0: 907f 60be 4200 993e 4787 1ebd fffc 16bd
000000c0: 42a9 11bd 8a4f d7bc aba7 4d3d 9bc3 b7bd
000000d0: d81b 44bd 4ee3 f5bc 9809 77bd 24b1 803c
000000e0: e077 513b 9801 07bd e6e7 9fbc 9850 773c
000000f0: d4a2 933d e0b3 f83c ba6b 2fbd d47c 573d
00000100: f5ef 1d3c a516 b53d 043f 01be 8851 1bbe
00000110: 1271 babd ff2a 973d 5be5 123e b8e1 733d
00000120: daaa c53e 7373 82be 4153 553d babc 8cbe
00000130: 3472 583e fd25 df3d c178 c73d bd55 963d
00000140: 81d3 ebbd eaf4 fc3c b573 af3d 027f b33e
00000150: 8b9d 75bd 3a76 9abe 5c91 923c 4a17 2e3d
00000160: c1b2 103d 5b39 5b3e d84a 673e aadb e7bd
00000170: 9fdc b0bd a5e3 5c3e 2730 f83b b45a 7d3e
00000180: de30 a23e decd a4be 1d2a 23be 0040 1a3b
00000190: ace5 103e dcbb a0bc a1e2 42be 74c7 2f3d
000001a0: 8bb5 4fbd 07c2 80be 86a0 e3bd 5eff be3e
000001b0: a742 893d 9b74 70be fc66 70be cd9b 92bd
000001c0: 4529 88bd f6c9 81be 4517 f93a d69e 15bd
000001d0: cbf5 a9bd f365 1e3d 951e a8bd 63d9 bcbd
000001e0: bcde 3b3e 8f82 adbe a53f c8bd fc09 4c3e
000001f0: b249 75be a7d9 203e 0d6c 6cbe 6660 edbd
00000200: b756 01be 0199 13be f450 013e ae63 6c3d
00000210: aedd c3bd 604a 5abd f852 e53d 71bc fabe
00000220: e1f4 13be 463b f73d 443e 4bbd e836 26be
00000230: 3bfa a3bd 4b7f 623e 6177 72be ce8f cbbc
00000240: bb3f d23d ba16 25bd 5a1f b43d 2f13 0dbe
00000250: 2989 5e3d 3612 18bd 9b5a b53d 042e 24bd
00000260: 0059 003d 9a6f 713e f79b a4be b66d 0fbb
00000270: 3265 84be d8b6 233e 708c 94bd 4093 fcbd
00000280: 4af4 baba b70a 95ba e6e2 8dbd bb77 ef3c
00000290: 1f23 2ebe 6c03 223e f290 62be 87f6 47be
000002a0: 9aca 37be 1b3b 1d3e 391d 843e 41e6 053d
000002b0: 13f6 47bd b7c1 c5bd 5e15 633e 567b 313e
000002c0: 2619 be3d 59d0 623d 7262 e5bd 3459 9fbd
000002d0: 632a 5dbe b47a 733e af3c 063d 4121 1bbe
000002e0: 11bf 0fbd 7921 dbbd 1c74 0abe 8be4 9fbd
000002f0: 80d6 9e3d 95e1 77be eabf c0bd 0d44 3f3d
00000300: dc79 653d dcb0 bcbc 2c37 29bc 44cb 1bbd
00000310: 84ae 833d ea66 8c3d 16bf 72bd 40d0 613b
00000320: b43a e13c d106 12bd a037 ffbc 7eac 423d
00000330: c78d 01bd 6ed4 58bd 6578 90bd 8294 4fbd
00000340: 7e56 80bc 822b 923d 0a74 3e3d 0064 56bc
00000350: 6466 d23c 6cd9 3bbd 5a09 5fbd 2055 303c
00000360: 00fc 8a38 fe8b 90bd c8ae 4bbe d03a 353d
00000370: 70fb 453c 7aed 99bd 11a7 fa3d 47e8 623c
00000380: 2b05 e03c 6eeb 28bd 008c ad3f 905b 7dbc
00000390: a42d 6fbc 09bf f6bd a936 aabd d593 82be
000003a0: 3c3c bcbb d176 09bd 0285 c9bc af60 68be
000003b0: 4c5c e3bd f8ae 8abe 3ad1 60bd 3883 fabc
000003c0: 60ce 2f3b d437 9dbc 8024 eb3b 3338 64bc
000003d0: e63d 423d 3603 79bd f28c 3a3d 38bf 313c
000003e0: 5e4c 193d dc06 be3c da85 89bd 80aa 3d3c
000003f0: 9b92 76bd 800d beba cc8f 6d3d 3d57 92bd

i2o.bias f4 [12]
-0.20958723 0.10081691 0.18875907 -0.28573236 -0.21081392 0.29739892 -0.09092537 0.20682535
0.0020071275 0.09048193 -0.2548871 0.0935709
00000000: 099e 56be 1979 ce3d 0f4a 413e 834b 92be
00000010: 9bdf 57be ac44 983e 1537 babd 06ca 533e
00000020: 038a 033b 974e b93d 9080 82be 1aa2 bf3d
